PA2/moon_ddpm.pt (torch, 71324 bytes, 6 tensors)

model.0.weight f4 [128, 2]
0	0xbf2013be	-0.62530124
1	0xbe641126	-0.22272167
2	0xbe49b617	-0.19698368
3	0xbf1615b8	-0.5862689
4	0xbec645aa	-0.38725024
5	0xbf238089	-0.63868004
6	0x3ebe6687	0.37187597
7	0x3e4487a7	0.19192372
8	0xbe6283a2	-0.22120526
9	0xbdb1ac91	-0.086754926
10	0xbf0694b9	-0.5257068
11	0xbee0d695	-0.43913713
12	0xbee38dbc	-0.44444072
13	0xbe39c65d	-0.18142076
14	0x3f1da8ee	0.6158589
15	0x3eb0fa48	0.3456595
16	0xbe65e5fa	-0.2245101
17	0x3e9de7c5	0.3084089
18	0xbf015efa	-0.5053555
19	0xbef0e4be	-0.47049516
20	0x3f328353	0.69731635
21	0xbf2b6ea4	-0.669657
22	0xbde3308d	-0.11093245
23	0xbe1b8a85	-0.1518956
24	0xbe55e10c	-0.2088663
25	0x3f13bf65	0.5771392
26	0xbe7523dc	-0.2393946
27	0xbef71889	-0.48260906
28	0xbe81ae78	-0.25328422
29	0xbf043135	-0.51637584
30	0xbeb06889	-0.34454754
31	0x3f181ebf	0.59421915
32	0xbecea1fe	-0.40357965
33	0xbf12d415	-0.5735486
34	0x3f2275ec	0.63461185
35	0xbeadaa6e	-0.3391909
36	0x3e23252d	0.1593215
37	0xbf2fa887	-0.6861653
38	0xbe456b7c	-0.19279283
39	0x3ea5f92f	0.32416674
40	0xbf1a0d6d	-0.60176736
41	0x3d1cc3da	0.038272716
42	0xbf2797af	-0.65465826
43	0x3e96e960	0.29474926
44	0xbf2ddcc8	-0.6791501
45	0xbea7e105	-0.32788864
46	0x3e1db44a	0.15400806
47	0xbea5784b	-0.3231834
48	0x3ea1eced	0.31626073
49	0x3e2499be	0.16074273
50	0xbe0abec0	-0.13549328
51	0xbd1e6fa2	-0.03868068
52	0x3f17accf	0.5924806
53	0xbe77f461	-0.24214317
54	0xbe5721df	-0.21009015
55	0xbd547269	-0.051866923
56	0x3ec42b42	0.38314253
57	0xbf0bc4a7	-0.5459694
58	0x3ed244f4	0.41068232
59	0xbebb82d6	-0.36623257
60	0x3f1f2a3b	0.62173814
61	0x3df6d95b	0.12053176
62	0xbf26e1d7	-0.65188354
63	0x3efb8b80	0.49129868
64	0xbe7f1b65	-0.24912794
65	0xbe18ef78	-0.149351
66	0x3ed99ef5	0.42504087
67	0xbf1e5bad	-0.61858636
68	0x3e46237e	0.19349477
69	0x3efc7977	0.4931142
70	0xbe462d17	-0.19353138
71	0xbcc6ca23	-0.024266308
72	0x3e39967c	0.18123811
73	0xbe240d41	-0.16020681
74	0x3eda8cc6	0.42685527
75	0x3f10e897	0.56604904
76	0x3b730748	0.0037083197
77	0xbe553040	-0.20819187
78	0x3eeecd7a	0.4664114
79	0xbe9503f5	-0.2910458
80	0x3e20fa2e	0.15720436
81	0x3e8ec64a	0.27885658
82	0xbd2b0111	-0.041749064
83	0x3e0fa125	0.14026316
84	0x3f0299a0	0.51015663
85	0xbe89c178	-0.26905417
86	0xbe2abfe2	-0.1667476
87	0x3ea4d45d	0.3219327
88	0x3eaa2e71	0.33238557
89	0xbe62fbe3	-0.221664
90	0xbf13d466	-0.5774597
91	0x3f0672df	0.5251903
92	0xbee42d9e	-0.44566053
93	0x3ed37812	0.41302544
94	0x3dd1216c	0.10211453
95	0x3ea06520	0.31327152
96	0x3edc3b67	0.4301407
97	0x3d616652	0.05502922
98	0x3e6376b2	0.22213247
99	0xbed8fe51	-0.42381528
100	0x3eb89a5d	0.3605527
101	0x3ee53b28	0.44771695
102	0x3d87b5d7	0.0662648
103	0xbd9a8072	-0.0754403
104	0x3e11afe6	0.14227256
105	0x3e3471b3	0.17621498
106	0xbf07e347	-0.5308117
107	0xbf2c70a5	-0.6735938
108	0xbe5b8ede	-0.21441218
109	0x3ed58c52	0.41708618
110	0x3f17744b	0.59161824
111	0xbe8b3694	-0.27190077
112	0x3d7e2377	0.06204554
113	0x3f06ac35	0.5260652
114	0xbee1301a	-0.4398201
115	0x3e89689a	0.26837617
116	0x3f0c760a	0.54867613
117	0xbf267cc5	-0.65034133
118	0x3f2639ca	0.6493193
119	0xbd6b77f9	-0.05748746
120	0x3e78d884	0.24301344
121	0xbedb1ab8	-0.42793822
122	0x3e4cdf5e	0.20007083
123	0xbcceaacf	-0.025227932
124	0x3f02d22d	0.5110195
125	0xbf02a9fe	-0.5104064
126	0xbf1cefaa	-0.613032
127	0x3e63ac53	0.22233705
128	0x3f03490c	0.51283336
129	0x3ec13cec	0.37741792
130	0x3d394063	0.04522742
131	0xbe8c3ca2	-0.2739001
132	0xbef5278a	-0.47881728
133	0x3ea2d6dc	0.3180455
134	0xbf012e08	-0.50460863
135	0x3f2c4fef	0.6730947
136	0x3f05ac47	0.52216
137	0x3f0c04f1	0.5469504
138	0x3f1c8047	0.61133236
139	0x3e9d1bdf	0.30685326
140	0x3e1d8f90	0.15386796
141	0xbe5e3c29	-0.21702637
142	0xbf08cea2	-0.53440297
143	0x3f20463d	0.62607175
144	0x3e074deb	0.13213317
145	0xbe5097de	-0.20370433
146	0x3efcbee3	0.49364385
147	0xbedee509	-0.43534115
148	0xbeaa79a5	-0.33295932
149	0xbe913aa5	-0.28365055
150	0x3e8978b9	0.26849917
151	0x3ea00c54	0.31259406
152	0xbf3030ac	-0.6882427
153	0xbf2065e1	-0.62655455
154	0x3ee31fe3	0.44360265
155	0xbe902bb1	-0.28158334
156	0xbe727d68	-0.23680651
157	0x3f2075ad	0.6267956
158	0xbf135669	-0.57553726
159	0x3db8683b	0.090042554
160	0xbe66fe21	-0.2255788
161	0x3e31ea3e	0.17374513
162	0x3ea993aa	0.3312047
163	0xbf1916e7	-0.5980057
164	0xbee47994	-0.44624007
165	0x3e91453f	0.28373143
166	0x3f1b4698	0.6065459
167	0x3c2ead63	0.010661456
168	0xbec0d200	-0.37660217
169	0x3e3a636e	0.18201992
170	0xbecd8100	-0.40137482
171	0x3e4400b5	0.19140895
172	0x3daa48f8	0.08314699
173	0xbf1fa10b	-0.6235511
174	0x3ec8b934	0.392038
175	0x3edd7d9e	0.432599
176	0xbc5194a3	-0.012791785
177	0x3f296c22	0.6618062
178	0xbec201c8	-0.37891984
179	0xbec8c749	-0.39214543
180	0xbee09034	-0.43860018
181	0x3f01302c	0.5046413
182	0xbd6524f4	-0.055943444
183	0xbe2e0b7e	-0.16996571
184	0x3e982455	0.2971522
185	0xbc67ec64	-0.014155481
186	0x3e26eccb	0.16301267
187	0xbee08de1	-0.43858245
188	0xbf0431e2	-0.51638615
189	0xbf15f4d4	-0.58576703
190	0x3ead8bfd	0.33895865
191	0xbf2aaca0	-0.66669655
192	0x3e2983f3	0.16554241
193	0x3ecf31dd	0.4046773
194	0x3ea2053c	0.3164462
195	0x3ea54290	0.32277346
196	0x3f205aba	0.6263844
197	0xbf0c59a6	-0.5482429
198	0x3e3b701d	0.18304487
199	0x3eac0048	0.33593965
200	0xbef4afdf	-0.4779043
201	0x3e352d82	0.17693141
202	0xbecfc165	-0.40577236
203	0xbee20c86	-0.4415018
204	0xbc7aa711	-0.015298621
205	0x3ed216a8	0.4103291
206	0x3dd4fb91	0.10399545
207	0x3eee936f	0.46596858
208	0xbf2a7e77	-0.6659922
209	0xbefbe483	-0.49197778
210	0x3e384deb	0.17998473
211	0x3df47a91	0.1193744
212	0x3e74dd1d	0.23912473
213	0x3e98ae97	0.298207
214	0x3f2ba670	0.6705084
215	0xbd5c4802	-0.05377961
216	0xbf1d40fe	-0.61427295
217	0xbe792be6	-0.24333152
218	0xbe809358	-0.25112414
219	0xbe0f483b	-0.13992397
220	0x3ee90b99	0.4551666
221	0xbea23250	-0.3167901
222	0xbca2ebe0	-0.019887865
223	0xbe7d71bb	-0.24750416
224	0xbf00db39	-0.5033451
225	0xbec0d09c	-0.37659156
226	0x3d167fdb	0.036743026
227	0xbed4864c	-0.4150871
228	0x3ec1cdb4	0.37852252
229	0x3e8b0720	0.27153873
230	0xbcf07050	-0.02935043
231	0x3d27afdc	0.040939197
232	0x3e107861	0.14108421
233	0xbf20439a	-0.6260315
234	0xbefd8dbe	-0.49522203
235	0xbe0790ac	-0.13238782
236	0x3edb4b1b	0.42830738
237	0xbcaae690	-0.020861894
238	0x3ef80ebe	0.48448747
239	0xbd8e0df8	-0.06936258
240	0x3f13afaa	0.5768992
241	0x3e8af4d6	0.2713992
242	0xbeb4debf	-0.35326192
243	0xbe505d88	-0.2034818
244	0xbd9f752c	-0.07786021
245	0xbe82768d	-0.25481072
246	0x3f195082	0.5988847
247	0x3e344347	0.1760379
248	0x3f258a2d	0.64663965
249	0x3ee22a97	0.44173118
250	0xbf169c1a	-0.5883194
251	0x3f00e87a	0.5035473
252	0xbf050498	-0.51960135
253	0xbdaac0ae	-0.08337532
254	0xbe93fe9a	-0.28905183
255	0x3e78132d	0.24226065

model.0.bias f4 [128]
0	0xbf08d232	-0.5344573
1	0xbf02c60c	-0.51083446
2	0x3ef65fbb	0.48119912
3	0xbef0805e	-0.46972936
4	0x3eb4d9bd	0.3532237
5	0x3efa767e	0.48918527
6	0x3d0ac88b	0.03388266
7	0xbe443b30	-0.19163203
8	0xbf1ddeee	-0.6166829
9	0xbeae19ea	-0.34004146
10	0xbe5c4454	-0.2151044
11	0x3f237a99	0.63858944
12	0xbf22faac	-0.63663745
13	0x3e7b2109	0.2452432
14	0xbeb518f1	-0.3537059
15	0x3f2bdec0	0.67136765
16	0xbe623812	-0.22091702
17	0x3db1b242	0.08676578
18	0xbed82e34	-0.4222275
19	0xbf155e24	-0.5834677
20	0xbf078327	-0.529345
21	0xbe678c37	-0.22612081
22	0x3f15c040	0.58496475
23	0xbf0bf8b4	-0.54676366
24	0xbee8e7ea	-0.45489436
25	0x3eed84a2	0.46390253
26	0xbeb2a92a	-0.34894687
27	0x3e190ebc	0.14947027
28	0xbf157827	-0.5838646
29	0xbea6a3ee	-0.32546943
30	0x3d901c09	0.07036597
31	0x3d302a4c	0.043009087
32	0x3c3ffb68	0.011717655
33	0x3f2680fb	0.6504056
34	0x3e6f6589	0.23378576
35	0xbe1e6741	-0.15469076
36	0x3e52f6c6	0.20601949
37	0x3e76358c	0.24043864
38	0xbe6a85cd	-0.22902603
39	0x3ece00cc	0.40234983
40	0x3f18215f	0.5942592
41	0xbcfbbc1c	-0.030729346
42	0xbf0e6b15	-0.55632144
43	0xbf157ee6	-0.58396757
44	0x3ef581b5	0.4795052
45	0xbf3dc2b6	-0.7412523
46	0x3f03c33c	0.5146978
47	0x3d632bbc	0.05546163
48	0xbed572a9	-0.4168904
49	0xbec770c0	-0.3895321
50	0xbf0d90d2	-0.55299103
51	0x3ef0c76d	0.4702715
52	0x3e919608	0.28434777
53	0xbf265ba7	-0.649836
54	0x3f26972c	0.6507442
55	0x3eef20cc	0.4670471
56	0x3d2094e9	0.03920451
57	0xbf365c0d	-0.7123421
58	0xbef001f9	-0.46876505
59	0x3ea43fe1	0.32079986
60	0x3eb9fca6	0.36325568
61	0xbe55e74b	-0.20889013
62	0xbe36d0df	-0.17853115
63	0xbedf924b	-0.436663
64	0x3e0a7fe2	0.13525346
65	0x3d66cec5	0.056349535
66	0xbde0effc	-0.109832734
67	0xbf2b7fda	-0.6699196
68	0xbea2fd08	-0.31833673
69	0xbee4dcc5	-0.44699684
70	0xbe45d52c	-0.193196
71	0x3e97446f	0.29544398
72	0x3f0533f0	0.52032375
73	0x3dc3331e	0.09531234
74	0xbefc89be	-0.4932384
75	0xbd275457	-0.040851917
76	0x3f008056	0.50195825
77	0xbee8f67f	-0.45500562
78	0x3e6f9bb0	0.23399234
79	0xbe9baef9	-0.3040693
80	0xbe0e0793	-0.13870077
81	0x3e5805e8	0.21096003
82	0x3f0d6067	0.55225223
83	0xbf25e433	-0.6480133
84	0x3e3bf8ec	0.18356675
85	0xbf17f42d	-0.5935696
86	0x3f03953c	0.5139959
87	0x3e824eb4	0.2545067
88	0xbbfc34f6	-0.007696743
89	0x3e5137fd	0.20431514
90	0x3e21792b	0.15768878
91	0x3f309846	0.6898235
92	0x3e8e2aef	0.2776713
93	0x3e6a0337	0.22852789
94	0xbf023a9b	-0.50870675
95	0x3efe3215	0.49647585
96	0x3f06c8ad	0.52649957
97	0x3e40e93b	0.1883897
98	0x3f21d0a0	0.6320896
99	0xbefa03e6	-0.488311
100	0x3e57d15c	0.21075958
101	0xbe9dded0	-0.30834055
102	0xbe5d9fb8	-0.21642959
103	0x3ef29252	0.4737726
104	0x3cf1cb62	0.029515926
105	0x3ef23999	0.4730957
106	0xbde03d3c	-0.109491795
107	0xbcce88be	-0.025211688
108	0x3f14d7e9	0.5814195
109	0xbf267924	-0.65028596
110	0x3e062b4e	0.13102457
111	0x3f2588c2	0.646618
112	0x3de1d6a9	0.11027271
113	0xbe1a2026	-0.15051326
114	0x3e0fb090	0.14032197
115	0x3eb1494f	0.34626243
116	0xbeaf8bee	-0.34286445
117	0x3cf969d2	0.030445967
118	0x3f0b065e	0.5430659
119	0xbead28b6	-0.33820122
120	0x3efb095f	0.49030587
121	0x3f02bce1	0.51069456
122	0xbec0243b	-0.37527642
123	0xbec6456b	-0.38724837
124	0xbef5a7b7	-0.4797952
125	0xbede60fc	-0.43433368
126	0xbeafeb93	-0.34359416
127	0x3eb534f0	0.3539195

model.2.weight f4 [128, 128]
0	0xbdac861e	-0.08424018
1	0x3dbc43cf	0.09192621
2	0xbd8ea5b5	-0.069652
3	0x3d189037	0.03724691
4	0x3d2d2d7c	0.042279705
5	0xbd5c1411	-0.053730074
6	0xbd4ac754	-0.0495065
7	0xbac5fdec	-0.0015105582
8	0xbd981cb6	-0.07427351
9	0x3d95e887	0.07319742
10	0xbc276a46	-0.010218209
11	0x3c176dc3	0.009242478
12	0x3d85493f	0.06508111
13	0x3d0a07b7	0.033698764
14	0xbd30d701	-0.043173794
15	0xbca734e1	-0.020410957
16	0xbd7fcc4a	-0.062450685
17	0xbb6f8248	-0.003654616
18	0x3b08fa15	0.0020901014
19	0xbdec114c	-0.115267366
20	0x3c250fc0	0.010074556
21	0xbd0b6962	-0.034036048
22	0xbd18d508	-0.037312537
23	0x3d074395	0.033023436
24	0x3de71e07	0.11285024
25	0x3d209480	0.03920412
26	0xbd052236	-0.03250333
27	0x3d599887	0.053123977
28	0x3d629aad	0.05532329
29	0xbb89c27a	-0.0042040916
30	0x3c98d882	0.018657926
31	0xbd6601f7	-0.056154218
32	0xbcb1f2cf	-0.021722225
33	0x3cd8f8f1	0.026485892
34	0x3d908023	0.0705569
35	0x3db20912	0.08693136
36	0x3da6be7b	0.081418
37	0x3d752971	0.059853975
38	0x3cd0a2ef	0.025468318
39	0x3d2f60be	0.04281687
40	0x3d4a2d7b	0.04935978
41	0x3d24b1cf	0.040208634
42	0x3dd8e8bf	0.10591268
43	0xbd5109ca	-0.051034726
44	0xbc2ce049	-0.010551521
45	0xbd357bab	-0.044307392
46	0x3d894944	0.067034274
47	0x3d46a2a5	0.048494954
48	0x3c9cdefe	0.0191493
49	0xbccf1f8c	-0.025283597
50	0xbaeae954	-0.001792232
51	0x3cf3122a	0.029671747
52	0xbcaa4734	-0.020785905
53	0xbd1711dc	-0.036882266
54	0xba6519eb	-0.0008739519
55	0xba789fe8	-0.0009484277
56	0x3a22c497	0.0006209104
57	0xbd91c853	-0.07118287
58	0xbd71c2f4	-0.059023812
59	0xbcdce624	-0.026965208
60	0x3dbb6f6e	0.09152113
61	0xbd320d08	-0.04346946
62	0x3d9fa470	0.07795036
63	0xbb1e5634	-0.0024160268
64	0xbc6f7ed0	-0.014617637
65	0x3db28dc3	0.08718445
66	0xbbedc2ac	-0.0072558727
67	0xbd37a661	-0.044836406
68	0x3d7e1451	0.062031094
69	0x3d99073e	0.074720845
70	0x3d9f3a72	0.077748194
71	0xbc9e5d02	-0.019331459
72	0x3da4611e	0.08026336
73	0x3c4ef572	0.012631761
74	0xbcecb2df	-0.028893886
75	0xbc2fbeb9	-0.010726624
76	0x3d9602bc	0.0732474
77	0xbd65d4dc	-0.0561112
78	0x3daf80e0	0.08569503
79	0xbd5410be	-0.05177378
80	0xbd2e2658	-0.042517036
81	0x3d42c448	0.04755047
82	0x3d6156e4	0.055014506
83	0x3d3c7e90	0.046019137
84	0xbd748bec	-0.059703752
85	0xbd5a45c6	-0.053289197
86	0xbd83847f	-0.06421756
87	0xbc0396d8	-0.008031569
88	0x3c251a0e	0.010077013
89	0x3d574cc8	0.05256346
90	0xbd541999	-0.051782224
91	0x3dbf77c1	0.09349013
92	0xbd8e4696	-0.06947057
93	0x3c9f9e68	0.019484714
94	0x3c53bc42	0.012923302
95	0x3d97c107	0.07409864
96	0xbd2a48cd	-0.041573334
97	0xbd33cea4	-0.04389824
98	0x3d740f85	0.059585113
99	0x3d62d37f	0.05537748
100	0x3b1ce7a2	0.0023941775
101	0xbc3eb1b4	-0.011639047
102	0x3cc0bad1	0.023526581
103	0x3c4bb872	0.012434112
104	0xbd76936a	-0.06019918
105	0x3da519bd	0.0806155
106	0x3dae78ae	0.085191116
107	0xbd42845b	-0.047489505
108	0xbd30f459	-0.043201778
109	0xbcc242fb	-0.02371358
110	0xbc6d689b	-0.014490272
111	0x3d9adb2c	0.07561335
112	0xbd18cc99	-0.037304495
113	0x3d3b7d91	0.045774046
114	0xbd7e0a40	-0.062021494
115	0x3d2e56ce	0.042563252
116	0xbcc5e2a2	-0.024155919
117	0x3dd768df	0.105180494
118	0x3dbe80b8	0.09301895
119	0xbc543dfc	-0.012954231
120	0x3d3f3442	0.046680696
121	0x3cf89ea9	0.030349093
122	0xbd3dad67	-0.046307947
123	0x3dccbd5b	0.09997054
124	0xbce9948d	-0.028513217
125	0x3da3d2e5	0.07999209
126	0xbd3eb16f	-0.046555933
127	0xbb8d3622	-0.0043094316
128	0x3be38535	0.0069433697
129	0xbd0f818b	-0.03503565
130	0xbda2a689	-0.0794192
131	0x3dbf7fcc	0.09350547
132	0x3c30e522	0.010796817
133	0xbd940fd8	-0.072295845
134	0x3da647b7	0.08119147
135	0x3cd91847	0.026500834
136	0x3d8f9cb8	0.070123136
137	0xbcd32334	-0.025773622
138	0xbd3b4bf8	-0.045726746
139	0x3cdec2cd	0.027192498
140	0xbc931246	-0.01795305
141	0xbc12f5eb	-0.008969764
142	0x3ca91ad3	0.020642674
143	0x3d1af4ca	0.037831105
144	0x3d2f4fd0	0.042800725
145	0xbd9a612c	-0.07538065
146	0xbcc8053d	-0.02441656
147	0xbcd95934	-0.026531793
148	0x3cb958bb	0.022625318
149	0x3dba76f8	0.09104723
150	0xbd428e1f	-0.04749882
151	0x3d6b7235	0.057481963
152	0x3d5afe10	0.05346495
153	0xbd942ec1	-0.0723548
154	0xbd1a110c	-0.037613913
155	0x3cbcff9b	0.023071101
156	0xbd755cf1	-0.05990309
157	0x3d4528b8	0.048134536
158	0x3d8f0dd1	0.06985057
159	0x3d4e5309	0.050372157
160	0xbd9514d4	-0.07279363
161	0x3d2cb004	0.04216005
162	0xbd974f5e	-0.07388185
163	0x3c3500c5	0.011047547
164	0x3ce0dfe4	0.02745051
165	0xbd4fd935	-0.050744254
166	0x3d7ad0c9	0.06123427
167	0xbdb31958	-0.08745068
168	0x3c081b31	0.008307264
169	0x3d346730	0.04404372
170	0xbd90ebc4	-0.07076219
171	0x3e079ae9	0.13242687
172	0x3d928a49	0.07155282
173	0xbd07366e	-0.033010893
174	0x3d3a134f	0.04542857
175	0x3d1911a6	0.037370346
176	0x3cd7a611	0.026324304
177	0x3d8339e8	0.06407529
178	0x3dbf3993	0.09337153
179	0xbda92caf	-0.08260476
180	0xbd9a2c94	-0.07528034
181	0x3cf7160b	0.030161878
182	0xbda06c03	-0.078331016
183	0xbd78dec5	-0.060759325
184	0xbd574a70	-0.052561224
185	0x3dbe1f88	0.09283358
186	0xbc270a8f	-0.010195388
187	0xbda74deb	-0.081691585
188	0xbd5fda50	-0.05465156
189	0x3bc1239d	0.005894138
190	0x3d1f697e	0.038918965
191	0x3d4a0b42	0.049327143
192	0xbc24ce97	-0.0100590205
193	0x3c90a3b1	0.01765618
194	0x3d69ccfe	0.05708026
195	0x3d6b9652	0.057516403
196	0x3d7bda61	0.06148756
197	0xbd83cc43	-0.06435444
198	0xbb4e8f39	-0.0031518473
199	0xbd122839	-0.03568289
200	0xbc4cd2d5	-0.012501438
201	0xbd7dbfbb	-0.061950427
202	0xbdc70330	-0.09717405
203	0x3d515818	0.051109403
204	0xbdac5d9b	-0.08416291
205	0x3dada8db	0.08479472
206	0x3d3fb03d	0.046798933
207	0xbcaf792c	-0.021420084
208	0xbcbebfe0	-0.023284853
209	0xbc838104	-0.01605273
210	0x3d95269f	0.07282757
211	0x3cacec9e	0.021108922
212	0x3d147f20	0.03625405
213	0xbc995d71	-0.018721314
214	0xbdc2e1a3	-0.09515693
215	0x3dae1a20	0.08501077
216	0x3d90c5d6	0.07068984
217	0xbcd7d697	-0.026347442
218	0x3daa5102	0.08316232
219	0x3bc96a6f	0.006146721
220	0x3d46b398	0.048511118
221	0x3d1e670a	0.038672484
222	0x3d895543	0.067057155
223	0x3d6f89dc	0.058481082
224	0xbcd1b258	-0.025597736
225	0x3da61481	0.081093796
226	0xbdd99c03	-0.1062546
227	0x3de4169a	0.111371234
228	0x3cbc1801	0.022960665
229	0xbac4e0f5	-0.0015020656
230	0xbd32b9fd	-0.043634403
231	0x3d85e387	0.06537538
232	0xbd159c9d	-0.03652631
233	0x3d4d0f16	0.050063215
234	0x3d1df2a1	0.038561467
235	0xbd346a9b	-0.04404698
236	0x3d089657	0.0333465
237	0x3d7da576	0.061925374
238	0xbdc1426e	-0.094364986
239	0x3d00ccc1	0.03144527
240	0xbd9d6c89	-0.07686717
241	0xbdb9c88a	-0.09071453
242	0xbd7f4eeb	-0.06233112
243	0x3d86f260	0.06589198
244	0xbd13473d	-0.03595661
245	0x3c701d84	0.014655475
246	0xbcfe2195	-0.031021873
247	0xbc330307	-0.010926015
248	0xbc6b5aba	-0.014364893
249	0xbc99ff39	-0.018798457
250	0x3d5d47d6	0.054023586
251	0xbd2554ed	-0.040364195
252	0xbcdc3ce1	-0.026884498
253	0x3d165e61	0.0367111
254	0xbd5b369b	-0.053518873
255	0x3d310b68	0.04322377

model.2.bias f4 [128]
0	0xbb195687	-0.0023397522
1	0x3c7cbba0	0.015425593
2	0xbd7ddc7e	-0.061977856
3	0x3d374dcc	0.044751927
4	0x3b9e0eec	0.004823556
5	0xbcf1f67c	-0.029536478
6	0x3dc0c5f7	0.09412759
7	0x3d5c047c	0.053715214
8	0x3d44ce44	0.048048273
9	0xbd524c64	-0.051342383
10	0x3c9df751	0.019282969
11	0x3d9c4fde	0.07632421
12	0x3cdfe93f	0.0273329
13	0x3abbc2d3	0.001432503
14	0xbd1e15e9	-0.038595114
15	0xbd9dcf3a	-0.07705541
16	0xbcf97af0	-0.030454129
17	0xbbaad22e	-0.0052130437
18	0xbd6dd751	-0.05806667
19	0x3d7dec08	0.061992675
20	0xbcd3e986	-0.025868189
21	0xbcd0c5bf	-0.025484918
22	0xbd73e281	-0.059542183
23	0x3cfecbc7	0.031103028
24	0x3d5adbdd	0.053432334
25	0xbd6303c1	-0.055423502
26	0xbdc06a93	-0.093953274
27	0xbb111a5a	-0.002214095
28	0xbc56ea9f	-0.013117461
29	0xbc6bea80	-0.014399171
30	0x3d9d443b	0.076790296
31	0xbd11da39	-0.035608504
32	0xbbb8003e	-0.0056152632
33	0xbcc2405c	-0.02371233
34	0xbd792ca7	-0.0608336
35	0xb8464a31	-4.7275975e-05
36	0xbcccdaa1	-0.025006594
37	0xbda7bdee	-0.08190523
38	0x3c35c4c0	0.011094272
39	0xbd804df3	-0.06264868
40	0xbd45b482	-0.04826785
41	0xba324953	-0.00068010873
42	0x3d11e61b	0.035619836
43	0xbd83e19e	-0.064395174
44	0xbd823271	-0.06357277
45	0xbdae933f	-0.08524179
46	0xbc7255bb	-0.014790948
47	0x3c22fddc	0.00994822
48	0xbd9302fa	-0.07178302
49	0x3c1f5dff	0.009727
50	0x3d91e6e9	0.07124121
51	0xbd516336	-0.051120006
52	0x3c58da27	0.013235605
53	0x3d699306	0.057024978
54	0x3d3ba00b	0.045806926
55	0xbd762d7f	-0.060101982
56	0x3d2a20c8	0.04153517
57	0x3d88bbcd	0.06676445
58	0x3ba7b8cc	0.005118465
59	0xbb1eabc7	-0.0024211274
60	0x3c211c40	0.0098333955
61	0x3c9cfb06	0.019162666
62	0x3d9ae288	0.07562739
63	0x3c438896	0.01193442
64	0x3d6ac7f4	0.057319596
65	0x3d04553a	0.03230784
66	0x3c8d5368	0.017251685
67	0xbbf3b924	-0.007437842
68	0xba883766	-0.0010392487
69	0xbcd299de	-0.025708135
70	0xbc239a6d	-0.009985548
71	0x3c0c9146	0.008579558
72	0xbcf1da52	-0.029523049
73	0x3d716fcd	0.058944512
74	0x3da68c7f	0.08132266
75	0xbce8adb1	-0.028403135
76	0x3d27360e	0.040823035
77	0xbdb3103b	-0.0874333
78	0x3d0ae51e	0.03390991
79	0x3d2a0349	0.04150704
80	0xbd1d65fa	-0.03842733
81	0xbd71411f	-0.058899995
82	0x3b507534	0.003180814
83	0xbda60da4	-0.081080705
84	0x3bb838d7	0.00562201
85	0xbd837119	-0.06418056
86	0xbdb0e678	-0.086377084
87	0x3c1345c6	0.008988803
88	0x3d59c02a	0.053161778
89	0x3d835230	0.064121604
90	0x3d5b6f18	0.053572744
91	0xbda44b53	-0.080221795
92	0xbcc740ca	-0.024322886
93	0xbd9090f3	-0.07058897
94	0x3d162269	0.03665391
95	0x3c9a15c9	0.018809216
96	0xbd53bb23	-0.05169214
97	0xbdd0c357	-0.10193508
98	0x3d91d977	0.07121556
99	0x3d71bf6c	0.059020445
100	0xbda399c1	-0.079883106
101	0x3db2e592	0.08735193
102	0x3c8ddd6b	0.017317494
103	0x3d0752ef	0.033038076
104	0xbd0b47f6	-0.034004174
105	0x3d55eef6	0.052229844
106	0x3d104bd8	0.03522858
107	0x3c9933fe	0.01870155
108	0x3ce852f9	0.028359877
109	0xbcdf2396	-0.027238648
110	0xbd25c7c1	-0.040473703
111	0x3d1f7494	0.038929537
112	0x3cea6791	0.028613837
113	0xbd807987	-0.062731795
114	0xbce7e4bc	-0.028307311
115	0xbda07547	-0.07834869
116	0xbd50fd8f	-0.051023062
117	0x3d7d82e4	0.061892405
118	0xbd33b101	-0.043869976
119	0x3d0d8342	0.034549005
120	0x3cc1fd89	0.023680465
121	0x3cf834fb	0.0302987
122	0xbcaf6570	-0.021410674
123	0xbdbf59f5	-0.0934333
124	0xbd8fd973	-0.07023897
125	0x3cad22ac	0.021134697
126	0x3bf9cc2e	0.007623217
127	0xbd5fff98	-0.054687113

model.4.weight f4 [2, 128]
0	0x3d24c3d9	0.040225837
1	0x3b713053	0.0036802485
2	0xbdb5c2d3	-0.088750504
3	0xbd9d8f3f	-0.07693338
4	0xbce99271	-0.028512212
5	0x3d80a0dd	0.06280682
6	0x3d64608c	0.055756137
7	0xbd1c2c1d	-0.038128007
8	0x3cf066e2	0.029345933
9	0x3d0a7b06	0.03380873
10	0x3d73b414	0.059497908
11	0xbcf619b0	-0.030041546
12	0x3c865ce4	0.016401716
13	0x3d47c93e	0.048775904
14	0x3b6ac0a7	0.0035820396
15	0x3ca54c6d	0.020178044
16	0xbd8e1e03	-0.06939318
17	0xbc08adbf	-0.008342206
18	0xbd11fda1	-0.03564227
19	0x3cf225d3	0.029559052
20	0xbc10e626	-0.008843934
21	0xbd1c074b	-0.038092893
22	0xbd2407a0	-0.040046334
23	0x3c10c30f	0.008835568
24	0x3d32140a	0.043476142
25	0x3d2e16b2	0.042502113
26	0xbc492403	-0.012276652
27	0xbd5547a4	-0.052070275
28	0x3c002204	0.00782061
29	0x3c271d8e	0.0101999175
30	0xbc1494ab	-0.009068648
31	0x3d6bfd0c	0.05761437
32	0x3d3dd0d0	0.046341717
33	0x3d05e45c	0.032688484
34	0x3ce59c9a	0.028028775
35	0xbb2adcdb	-0.0026071582
36	0x3d170c3e	0.03687691
37	0xbd5df125	-0.05418505
38	0x3d9cee97	0.07662695
39	0x3d6f3e9d	0.058409322
40	0x3bd2fb9b	0.006438685
41	0x3cf85d08	0.030317798
42	0xbdba95e9	-0.09110624
43	0xbd5a16c0	-0.053244352
44	0x3d70eb04	0.05881788
45	0x3da6fd93	0.08153834
46	0xbd7453a2	-0.05965007
47	0xbd9a6244	-0.07538274
48	0xbd1457b2	-0.036216445
49	0x3ca4db4d	0.020124102
50	0x3d7ea570	0.062169492
51	0x3ca6044a	0.020265717
52	0xbdb9da7e	-0.09074877
53	0x3d9e2ff6	0.077239916
54	0x3cfff7b6	0.031246047
55	0xbd89786a	-0.0671242
56	0xbd0b8693	-0.034063887
57	0x3d6553be	0.055988066
58	0xbcec7759	-0.028865503
59	0xbdb9e5d6	-0.09077041
60	0xbd31d41f	-0.043415185
61	0xbca388c9	-0.019962685
62	0x3d3711f7	0.044694867
63	0xbbd4185c	-0.0064726304
64	0x3d3043a6	0.043033265
65	0x3d76b6be	0.06023287
66	0xbd839f45	-0.064268626
67	0x3c431c2c	0.011908572
68	0x3dc68a00	0.0969429
69	0x3d1b0467	0.037845995
70	0x3d050e9d	0.03248464
71	0x3c1e1326	0.00964812
72	0xbd36f636	-0.0446684
73	0x3c149800	0.009069443
74	0xbd9d3b1b	-0.07677289
75	0xbd9f034b	-0.077643
76	0xbd84ca63	-0.06483915
77	0x3cebfb40	0.028806329
78	0xbd361883	-0.04445697
79	0xbc80f167	-0.01574011
80	0x3db598a0	0.088670015
81	0x3db0bbb6	0.08629553
82	0x3d2fa169	0.042878542
83	0xbcfe4324	-0.031037875
84	0x3c09db28	0.008414067
85	0x3b0c7f65	0.0021438238
86	0xbd15df8f	-0.036590155
87	0xbd8567d9	-0.06513948
88	0xbc7d8870	-0.015474424
89	0x3d4853a1	0.04890788
90	0x3c52e29e	0.012871413
91	0x3caac202	0.020844463
92	0xbd784fe8	-0.06062308
93	0x3bb3925c	0.005480094
94	0x3d835f65	0.064146794
95	0x3d3f01b0	0.04663247
96	0x3cfd53e0	0.030923784
97	0xbcdd0fb2	-0.026985023
98	0xbc48d0a5	-0.012256776
99	0xbd90184c	-0.07035884
100	0xbd18fe81	-0.03735209
101	0xbd4fedd9	-0.05076394
102	0x3b634de5	0.003468388
103	0x3cba0b3c	0.022710435
104	0x3d0266c9	0.031836305
105	0xbd05fa48	-0.03270939
106	0x3da799f7	0.08183663
107	0x3d51cc85	0.051220436
108	0xbc6c92d4	-0.014439303
109	0x3ca630ad	0.020286882
110	0xba697e23	-0.00089070405
111	0x3d49b717	0.049246874
112	0x3d81e084	0.06341651
113	0xbd3e1a23	-0.046411645
114	0x3cd82199	0.026383208
115	0xbc6310c8	-0.013858981
116	0xbdabfc0e	-0.08397685
117	0x3d6cd76d	0.057822634
118	0x3d20e0d3	0.03927691
119	0x3dacb343	0.08432629
120	0xba82a21e	-0.0009966528
121	0xbcb72b76	-0.022359591
122	0xbd99f031	-0.07516516
123	0x3d593810	0.05303198
124	0xbd9f0b55	-0.07765833
125	0xbdabba71	-0.0838517
126	0x3cc60dd9	0.024176525
127	0x3cdae707	0.02672149
128	0xbba154a2	-0.004923419
129	0x3d9bc555	0.076059975
130	0xbd7b1396	-0.061297975
131	0x3c0dfd93	0.008666414
132	0xbc3b9589	-0.011449226
133	0x3bba1886	0.005679193
134	0xbcb9193d	-0.022595042
135	0x3d8c8e24	0.06863049
136	0x3d65d949	0.056115422
137	0xbd2f26af	-0.0427615
138	0x3b563bfe	0.0032689567
139	0x3daa0f29	0.08303673
140	0xbdb58c02	-0.08864595
141	0x3d269c6b	0.040676516
142	0xbd4c6530	-0.049901187
143	0xbb8aa25a	-0.0042307796
144	0x3d6bb7d4	0.05754836
145	0x3d9342ee	0.071905
146	0xbd9cdfde	-0.07659887
147	0xbb8a3126	-0.0042172847
148	0x3c9e8a85	0.01935316
149	0x3d5456ed	0.05184071
150	0x3b91f8b3	0.004454696
151	0x3dbac0d9	0.09118814
152	0x3d61fc78	0.055172414
153	0x3d6581f8	0.05603215
154	0x3dd92c91	0.106042035
155	0x3cdf3112	0.027245078
156	0xbadc18bc	-0.0016792039
157	0xbd1099d2	-0.035302944
158	0xbd9e35b8	-0.0772509
159	0xbd27b4b7	-0.040943827
160	0xbc83a656	-0.016070526
161	0xbd965fc0	-0.073424816
162	0x3b9b3483	0.0047364845
163	0x3ca8a551	0.020586642
164	0x3d7c7145	0.06163146
165	0xbd45689e	-0.048195474
166	0x3d2e5020	0.042556882
167	0xbdbf8e6f	-0.09353339
168	0x3d560f5f	0.052260753
169	0x3d9f7e7b	0.07787796
170	0x3d525545	0.05135085
171	0x3da5072a	0.08058007
172	0x3d40a7dd	0.047035087
173	0xbda0e54a	-0.078562334
174	0x3cd2b20f	0.02571967
175	0x3d7cfb80	0.061763287
176	0xbd212428	-0.039341122
177	0x3d304933	0.04303856
178	0x3db8c4fb	0.09021946
179	0x3dab7aab	0.083730064
180	0xbd4ed2a2	-0.050493844
181	0xbcee6460	-0.029100597
182	0x3d4a0363	0.049319636
183	0xbdafd300	-0.08585167
184	0xbb48ac4d	-0.0030620277
185	0x3d5ad7e6	0.053428553
186	0x3da38498	0.079842746
187	0xbdacb11f	-0.08432221
188	0xbd09e71d	-0.033667672
189	0xbdcc9617	-0.09989565
190	0x3dbd130b	0.09232148
191	0xbd7f0ef4	-0.06227012
192	0x3d9537f5	0.072860636
193	0xbd16747b	-0.03673218
194	0xbd456b89	-0.048198257
195	0x3d834c41	0.06411029
196	0xbd0903f4	-0.033451036
197	0xbdc1752a	-0.094461754
198	0xbd808300	-0.06274986
199	0xbd1b2ab7	-0.037882533
200	0x3d3827e2	0.04495991
201	0xbd6548c8	-0.055977613
202	0x3dadbfb4	0.0848383
203	0xbdb4bdea	-0.08825286
204	0xbd4da8e0	-0.05020988
205	0x3d1b6fee	0.03794854
206	0x3d0d718c	0.034532115
207	0xbd9d6263	-0.076847814
208	0x3dad8502	0.08472635
209	0xbcb18bfe	-0.021673199
210	0x3d82fd86	0.06396012
211	0x3cbf5357	0.02335517
212	0x39683ff0	0.00022149063
213	0x3d8075e8	0.06272489
214	0x3d1106e3	0.03540696
215	0x39be18bc	0.00036258053
216	0xbd8f7e9e	-0.07006572
217	0x3d86bde5	0.06579188
218	0xbd1129b6	-0.03544017
219	0xbd0d1cc4	-0.03445126
220	0xbd2d6cec	-0.042340204
221	0x3aa0f270	0.0012279283
222	0xbd5c74d0	-0.05382234
223	0xbd8249a2	-0.063617006
224	0xbd998307	-0.074956946
225	0x3d0f2053	0.034942936
226	0x3bfcd7dc	0.007716162
227	0x3cdb7d40	0.026793122
228	0xbb576397	-0.0032865757
229	0x3db549d1	0.0885197
230	0xbd895b94	-0.0670692
231	0xbd4f1010	-0.050552428
232	0x3d411fe0	0.04714954
233	0xbc4116e8	-0.011785246
234	0x3c2a2673	0.010385144
235	0x3d09140e	0.03346639
236	0x3cdf2687	0.027240051
237	0xbb0ef869	-0.0021815544
238	0x3ab054bd	0.0013452988
239	0x3d8b9728	0.0681594
240	0x3cf6484a	0.030063767
241	0xbda87605	-0.082256354
242	0x3d8c47ec	0.068496555
243	0xbcd511a2	-0.026009385
244	0xbd741a1f	-0.059595224
245	0xbd31c046	-0.043396257
246	0xbd34ff91	-0.04418904
247	0x3ce6d3c0	0.028177142
248	0xbcc95bcf	-0.02457991
249	0xbc44b2b0	-0.012005493
250	0xbcd023f2	-0.025407765
251	0xbc1116e4	-0.008855555
252	0x3d8d271d	0.06892226
253	0x39782a00	0.00023666769
254	0x3d4508ac	0.048103973
255	0x3dc3fcb2	0.09569682

model.4.bias f4 [2]
0	0x3aeac481	0.0017911346
1	0xbb6ab0e8	-0.003581101
